…
, test_epochs=100, num_workers=1, mode='train', data_dir='data', saving_dir='results/2023-04-13_20-21', log_step=1, sample_step=1000, model_save_step=20, lr_update_step=1000, lambda_wgan=1, restore_G='/home/abisheks/10708-Project/MolGAN-PyTorch/results/2023-04-10_14-55/models/40-G.ckpt', restore_D='/home/abisheks/10708-Project/MolGAN-PyTorch/results/2023-04-10_14-55/models/40-D.ckpt', log_dir='results/2023-04-13_20-21/logs', model_dir='results/2023-04-13_20-21/models')
INFO:root:Generator(
  (activation_f): ReLU()
  (multi_dense_layer): MultiDenseLayer(
    (linear_layer): Sequential(
      (0): Linear(in_features=8, out_features=128, bias=True)
      (1): Dropout(p=0.0, inplace=False)
      (2): LayerNorm((128,), eps=1e-05, elementwise_affine=True)
      (3): ReLU()
      (4): Linear(in_features=128, out_features=256, bias=True)
      (5): Dropout(p=0.0, inplace=False)
      (6): LayerNorm((256,), eps=1e-05, elementwise_affine=True)
      (7): ReLU()
      (8): Linear(in_features=256, out_features=768, bias=True)
      (9): Dropout(p=0.0, inplace=False)
      (10): LayerNorm((768,), eps=1e-05, elementwise_affine=True)
      (11): ReLU()
    )
  )
  (mha): MultiheadAttention(
    (out_proj): NonDynamicallyQuantizableLinear(in_features=768, out_features=768, bias=True)
  )
  (multi_dense_layer_2): MultiDenseLayer(
    (linear_layer): Sequential(
      (0): Linear(in_features=768, out_features=512, bias=True)
      (1): Dropout(p=0.0, inplace=False)
      (2): LayerNorm((512,), eps=1e-05, elementwise_affine=True)
      (3): ReLU()
      (4): Linear(in_features=512, out_features=256, bias=True)
      (5): Dropout(p=0.0, inplace=False)
      (6): LayerNorm((256,), eps=1e-05, elementwise_affine=True)
      (7): ReLU()
      (8): Linear(in_features=256, out_features=128, bias=True)
      (9): Dropout(p=0.0, inplace=False)
      (10): LayerNorm((128,), eps=1e-05, elementwise_affine=True)
      (11): ReLU()
    )
  )
  (adjM_layer): Linear(in_features=128, out_features=2500, bias=True)
  (dropoout): Dropout(p=0.0, inplace=False)
)
INFO:root:G
INFO:root:The number of parameters: 3478468
INFO:root:Discriminator(
  (activation_f): ReLU()
  (gcn_layer): GraphConvolution(
    (activation_f): Tanh()
    (multi_graph_convolution_layers): MultiGraphConvolutionLayers(
      (conv_nets): ModuleList(
        (0): GraphConvolutionLayer(
          (adj_list): Linear(in_features=128, out_features=128, bias=True)
          (linear_2): Linear(in_features=128, out_features=128, bias=True)
          (activation): Tanh()
          (dropout): Dropout(p=0.0, inplace=False)
          (pe): PositionalEncoder()
        )
        (1): GraphConvolutionLayer(
          (adj_list): Linear(in_features=128, out_features=256, bias=True)
          (linear_2): Linear(in_features=128, out_features=256, bias=True)
          (activation): Tanh()
          (dropout): Dropout(p=0.0, inplace=False)
          (pe): PositionalEncoder()
        )
      )
    )
  )
  (agg_layer): GraphAggregation(
    (activation): ReLU()
    (i): Sequential(
      (0): Linear(in_features=256, out_features=768, bias=True)
      (1): Sigmoid()
    )
    (j): Sequential(
      (0): Linear(in_features=256, out_features=768, bias=True)
      (1): ReLU()
    )
    (dropout): Dropout(p=0.0, inplace=False)
  )
  (mha): MultiheadAttention(
    (out_proj): NonDynamicallyQuantizableLinear(in_features=768, out_features=768, bias=True)
  )
  (multi_dense_layer): MultiDenseLayer(
    (linear_layer): Sequential(
      (0): Linear(in_features=768, out_features=256, bias=True)
      (1): Dropout(p=0.0, inplace=False)
      (2): LayerNorm((256,), eps=1e-05, elementwise_affine=True)
      (3): ReLU()
      (4): Linear(in_features=256, out_features=64, bias=True)
      (5): Dropout(p=0.0, inplace=False)
      (6): LayerNorm((64,), eps=1e-05, elementwise_affine=True)
      (7): ReLU()
    )
  )
  (output_layer): Linear(in_features=64, out_features=1, bias=True)
)
INFO:root:D
INFO:root:The number of parameters: 3070209
INFO:root:BertModel(
  (embeddings): BertEmbeddings(
    (word_embeddings): Embedding(30522, 768, padding_idx=0)
    (position_embeddings): Embedding(512, 768)
    (token_type_embeddings): Embedding(2, 768)
    (LayerNorm): LayerNorm((768,), eps=1e-12, elementwise_affine=True)
    (dropout): Dropout(p=0.1, inplace=False)
  )
  (encoder): BertEncoder(
    (layer): ModuleList(
      (0-11): 12 x BertLayer(
        (attention): BertAttention(
          (self): BertSelfAttention(
            (query): Linear(in_features=768, out_features=768, bias=True)
            (key): Linear(in_features=768, out_features=768, bias=True)
            (value): Linear(in_features=768, out_features=768, bias=True)
            (dropout): Dropout(p=0.1, inplace=False)
          )
          (output): BertSelfOutput(
            (dense): Linear(in_features=768, out_features=768, bias=True)
            (LayerNorm): LayerNorm((768,), eps=1e-12, elementwise_affine=True)
            (dropout): Dropout(p=0.1, inplace=False)
          )
        )
        (intermediate): BertIntermediate(
          (dense): Linear(in_features=768, out_features=3072, bias=True)
          (intermediate_act_fn): GELUActivation()
        )
        (output): BertOutput(
          (dense): Linear(in_features=3072, out_features=768, bias=True)
          (LayerNorm): LayerNorm((768,), eps=1e-12, elementwise_affine=True)
          (dropout): Dropout(p=0.1, inplace=False)
        )
      )
    )
  )
  (pooler): BertPooler(
    (dense): Linear(in_features=768, out_features=768, bias=True)
    (activation): Tanh()
  )
)
INFO:root:bert-base-uncased
INFO:root:The number of parameters: 109482240
INFO:root:5 sample adjacenecy matrices
--------------------------------------------------
Text: Graph with 1 connected components, 5 nodes, max degree 3, max diameter 3, min degree 1, has cycle, 6 edges
Adjacency matrix:
[[1 1 1 ... 1 1 1]
 [1 0 1 ... 0 1 0]
…
